…
date': 0, 'ema_seed_model': None, 'ema_update_freq': 1, 'ema_fp32': False}, 'job_logging_cfg': {'version': 1, 'formatters': {'simple': {'format': '[%(asctime)s][%(name)s][%(levelname)s] - %(message)s'}}, 'handlers': {'console': {'class': 'logging.StreamHandler', 'formatter': 'simple', 'stream': 'ext://sys.stdout'}, 'file': {'class': 'logging.FileHandler', 'formatter': 'simple', 'filename': 'hydra_train.log'}}, 'root': {'level': 'INFO', 'handlers': ['console', 'file']}, 'disable_existing_loggers': False}}
[2024-10-08 16:40:39,221][fairseq_cli.train][INFO] - SignHubertModel(
  (post_extract_proj): Linear(in_features=1024, out_features=768, bias=True)
  (dropout_input): Dropout(p=0.0, inplace=False)
  (dropout_features): Dropout(p=0.0, inplace=False)
  (encoder): TransformerEncoder(
    (pos_conv): Sequential(
      (0): Conv1d(768, 768, kernel_size=(32,), stride=(1,), padding=(16,), groups=16)
      (1): SamePad()
      (2): GELU(approximate='none')
    )
    (layers): ModuleList(
      (0-11): 12 x TransformerSentenceEncoderLayer(
        (self_attn): MultiheadAttention(
          (dropout_module): FairseqDropout()
          (k_proj): Linear(in_features=768, out_features=768, bias=True)
          (v_proj): Linear(in_features=768, out_features=768, bias=True)
          (q_proj): Linear(in_features=768, out_features=768, bias=True)
          (out_proj): Linear(in_features=768, out_features=768, bias=True)
        )
        (dropout1): Dropout(p=0.1, inplace=False)
        (dropout2): Dropout(p=0.0, inplace=False)
        (dropout3): Dropout(p=0.1, inplace=False)
        (self_attn_layer_norm): LayerNorm((768,), eps=1e-05, elementwise_affine=True)
        (fc1): Linear(in_features=768, out_features=3072, bias=True)
        (fc2): Linear(in_features=3072, out_features=768, bias=True)
        (final_layer_norm): LayerNorm((768,), eps=1e-05, elementwise_affine=True)
      )
    )
    (layer_norm): LayerNorm((768,), eps=1e-05, elementwise_affine=True)
  )
  (layer_norm): LayerNorm((1536,), eps=1e-05, elementwise_affine=True)
  (layer_norm_face): LayerNorm((384,), eps=1e-05, elementwise_affine=True)
  (layer_norm_lhand): LayerNorm((384,), eps=1e-05, elementwise_affine=True)
  (layer_norm_rhand): LayerNorm((384,), eps=1e-05, elementwise_affine=True)
  (layer_norm_body): LayerNorm((14,), eps=1e-05, elementwise_affine=True)
  (heads): ModuleList(
    (0-3): 4 x Linear(in_features=768, out_features=256, bias=True)
  )
  (face_proj): Linear(in_features=384, out_features=256, bias=True)
  (left_hand_proj): Linear(in_features=384, out_features=256, bias=True)
  (right_hand_proj): Linear(in_features=384, out_features=256, bias=True)
  (body_posture_proj): Linear(in_features=14, out_features=256, bias=True)
)
[2024-10-08 16:40:39,223][fairseq_cli.train][INFO] - task: AudioPretrainingTask
[2024-10-08 16:40:39,223][fairseq_cli.train][INFO] - model: SignHubertModel
[2024-10-08 16:40:39,223][fairseq_cli.train][INFO] - criterion: ModelCriterion
[2024-10-08 16:40:39,224][fairseq_cli.train][INFO] - num. shared model params: 88,116,284 (num. trained: 88,116,284)
[2024-10-08 16:40:39,225][fairseq_cli.train][INFO] - num. expert model params: 0 (num. trained: 0)
[2024-10-08 16:40:39,510][fairseq.data.audio.raw_audio_dataset][INFO] - loaded 84002, skipped 0 samples
[2024-10-08 16:40:40,731][fairseq_cli.train][INFO] - SignHubertModel(
  (post_extract_proj): Linear(in_features=1024, out_features=768, bias=True)
  (dropout_input): Dropout(p=0.0, inplace=False)
  (dropout_features): Dropout(p=0.0, inplace=False)
  (encoder): TransformerEncoder(
    (pos_conv): Sequential(
      (0): Conv1d(768, 768, kernel_size=(32,), stride=(1,), padding=(16,), groups=16)
      (1): SamePad()
      (2): GELU(approximate='none')
    )
    (layers): ModuleList(
      (0-11): 12 x TransformerSentenceEncoderLayer(
        (self_attn): MultiheadAttention(
          (dropout_module): FairseqDropout()
          (k_proj): Linear(in_features=768, out_features=768, bias=True)
          (v_proj): Linear(in_features=768, out_features=768, bias=True)
          (q_proj): Linear(in_features=768, out_features=768, bias=True)
          (out_proj): Linear(in_features=768, out_features=768, bias=True)
        )
        (dropout1): Dropout(p=0.1, inplace=False)
        (dropout2): Dropout(p=0.0, inplace=False)
        (dropout3): Dropout(p=0.1, inplace=False)
        (self_attn_layer_norm): LayerNorm((768,), eps=1e-05, elementwise_affine=True)
        (fc1): Linear(in_features=768, out_features=3072, bias=True)
        (fc2): Linear(in_features=3072, out_features=768, bias=True)
        (final_layer_norm): LayerNorm((768,), eps=1e-05, elementwise_affine=True)
      )
    )
    (layer_norm): LayerNorm((768,), eps=1e-05, elementwise_affine=True)
  )
  (layer_norm): LayerNorm((1536,), eps=1e-05, elementwise_affine=True)
  (layer_norm_face): LayerNorm((384,), eps=1e-05, elementwise_affine=True)
  (layer_norm_lhand): LayerNorm((384,), eps=1e-05, elementwise_affine=True)
  (layer_norm_rhand): LayerNorm((384,), eps=1e-05, elementwise_affine=True)
  (layer_norm_body): LayerNorm((14,), eps=1e-05, elementwise_affine=True)
  (heads): ModuleList(
    (0-3): 4 x Linear(in_features=768, out_features=256, bias=True)
  )
  (face_proj): Linear(in_features=384, out_features=256, bias=True)
  (left_hand_proj): Linear(in_features=384, out_features=256, bias=True)
  (right_hand_proj): Linear(in_features=384, out_features=256, bias=True)
  (body_posture_proj): Linear(in_features=14, out_features=256, bias=True)
)
[2024-10-08 16:40:40,740][fairseq_cli.train][INFO] - task: AudioPretrainingTask
[2024-10-08 16:40:40,741][fairseq_cli.train][INFO] - model: SignHubertModel
[2024-10-08 16:40:40,741][fairseq_cli.train][INFO] - criterion: ModelCriterion
[2024-10-08 16:40:40,742][fairseq_cli.train][INFO] - num. shared model params: 88,116,284 (num. trained: 88,116,284)
[2024-10-08 16:40:40,747][fairseq_cli.train][INFO] - num. expert model params: 0 (num. trained: 0)
[2024-10-08 16:40:41,208][fairseq.data.audio.raw_audio_dataset][INFO] - loaded 84002, skipped 0 samples
[2024-10-08 16:40:42,072][fairseq_cli.train][INFO] - SignHubertModel(
  (post_extract_proj): Linear(in_features=1024, out_features=768, bias=True)
  (dropout_input): Dropout(p=0.0, inplace=False)
  (dropout_features): Dropout(p=0.0, inplace=False)
  (encoder): TransformerEncoder(
    (pos_conv): Sequential(
      (0): Conv1d(768, 768, kernel_size=(32,), stride=(1,), padding=(16,), groups=16)
      (1): SamePad()
      (2): GELU(approximate='none')
    )
    (layers): ModuleList(
      (0-11): 12 x TransformerSentenceEncoderLayer(
        (self_attn): MultiheadAttention(
          (dropout_module): FairseqDropout()
          (k_proj): Linear(in_features=768, out_features=768, bias=True)
          (v_proj): Linear(in_features=768, out_features=768, bias=True)
          (q_proj): Linear(in_features=768, out_features=768, bias=True)
          (out_proj): Linear(in_features=768, out_features=768, bias=True)
        )
        (dropout1): Dropout(p=0.1, inplace=False)
        (dropout2): Dropout(p=0.0, inplace=False)
        (dropout3): Dropout(p=0.1, inplace=False)
        (self_attn_layer_norm): LayerNorm((768,), eps=1e-05, elementwise_affine=True)
        (fc1): Linear(in_features=768, out_features=3072, bias=True)
        (fc2): Linear(in_features=3072, out_features=768, bias=True)
        (final_layer_norm): LayerNorm((768,), eps=1e-05, elementwise_affine=True)
      )
    )
    (layer_norm): LayerNorm((768,), eps=1e-05, elementwise_affine=True)
  )
  (layer_norm): LayerNorm((1536,), eps=1e-05, elementwise_affine=True)
  (layer_norm_face): LayerNorm((384,), eps=1e-05, elementwise_affine=True)
  (layer_norm_lhand): LayerNorm((384,), eps=1e-05, elementwise_affine=True)
  (layer_norm_rhand): LayerNorm((384,), eps=1e-05, elementwise_affine=True)
  (layer_norm_body): LayerNorm((14,), eps=1e-05, elementwise_affine=True)
  (heads): ModuleList(
    (0-3): 4 x Linear(in_features=768, out_features=256, bias=True)
  )
  (face_proj): Linear(in_features=384, out_features=256, bias=True)
  (left_hand_proj): Linear(in_features=384, out_features=256, bias=True)
  (right_hand_proj): Linear(in_features=384, out_features=256, bias=True)
  (body_posture_proj): Linear(in_features=14, out_features=256, bias=True)
)
[2024-10-08 16:40:42,074][fairseq_cli.train][INFO] - task: AudioPretrainingTask
[2024-10-08 16:40:42,074][fairseq_cli.train][INFO] - model: SignHubertModel
[2024-10-08 16:40:42,074][fairseq_cli.train][INFO] - criterion: ModelCriterion
[2024-10-08 16:40:42,075][fairseq_cli.train][INFO] - num. shared model params: 88,116,284 (num. trained: 88,116,284)
[2024-10-08 16:40:42,076][fairseq_cli.train][INFO] - num. expert model params: 0 (num. trained: 0)
[2024-10-08 16:40:42,549][fairseq.data.audio.raw_audio_dataset][INFO] - loaded 84002, skipped 0 samples
[2024-10-08 16:40:42,766][fairseq_cli.train][INFO] - SignHubertModel(
  (post_extract_proj): Linear(in_features=1024, out_features=768, bias=True)
  (dropout_input): Dropout(p=0.0, inplace=False)
  (dropout_features): Dropout(p=0.0, inplace=False)
  (encoder): TransformerEncoder(
    (pos_conv): Sequential(
      (0): Conv1d(768, 768, kernel_size=(32,), stride=(1,), padding=(16,), groups=16)
      (1): SamePad()
      (2): GELU(approximate='none')
    )
    (layers): ModuleList(
      (0-11): 12 x TransformerSentenceEncoderLayer(
        (self_attn): MultiheadAttention(
          (dropout_module): FairseqDropout()
          (k_proj): Linear(in_features=768, out_features=768, bias=True)
          (v_proj): Linear(in_features=768, out_features=768, bias=True)
          (q_proj): Linear(in_features=768, out_features=768, bias=True)
          (out_proj): Linear(in_features=768, out_features=768, bias=True)
        )
        (dropout1): Dropout(p=0.1, inplace=False)
        (dropout2): Dropout(p=0.0, inplace=False)
        (dropout3): Dropout(p=0.1, inplace=False)
        (self_attn_layer_norm): LayerNorm((768,), eps=1e-05, elementwise_affine=True)
        (fc1): Linear(in_features=768, out_features=3072, bias=True)
        (fc2): Linear(in_features=3072, out_features=768, bias=True)
        (final_layer_norm): LayerNorm((768,), eps=1e-05, elementwise_affine=True)
      )
    )
    (layer_norm): LayerNorm((768,), eps=1e-05, elementwise_affine=True)
  )
  (layer_norm): LayerNorm((1536,), eps=1e-05, elementwise_affine=True)
  (layer_norm_face): LayerNorm((384,), eps=1e-05, elementwise_affine=True)
  (layer_norm_lhand): LayerNorm((384,), eps=1e-05, elementwise_affine=True)
  (layer_norm_rhand): LayerNorm((384,), eps=1e-05, elementwise_affine=True)
  (layer_norm_body): LayerNorm((14,), eps=1e-05, elementwise_affine=True)
  (heads): ModuleList(
    (0-3): 4 x Linear(in_features=768, out_features=256, bias=True)
  )
  (face_proj): Linear(in_features=384, out_features=256, bias=True)
  (left_hand_proj): Linear(in_features=384, out_features=256, bias=True)
  (right_hand_proj): Linear(in_features=384, out_features=256, bias=True)
  (body_posture_proj): Linear(in_features=14, out_features=256, bias=True)
)
[2024-10-08 16:40:42,776][fairseq_cli.train][INFO] - task: AudioPretrainingTask
[2024-10-08 16:40:42,776][fairseq_cli.train][INFO] - model: SignHubertModel
[2024-10-08 16:40:42,776][fairseq_cli.train][INFO] - criterion: ModelCriterion
[2024-10-08 16:40:42,777][fairseq_cli.train][INFO] - num. shared model params: 88,116,284 (num. trained: 88,116,284)
[2024-10-08 16:40:42,783][fairseq_cli.train][INFO] - num. expert model params: 0 (num. trained: 0)
[2024-10-08 16:40:42,858][fairseq_cli.train][INFO] - SignHubertModel(
  (post_extract_proj): Linear(in_features=1024, out_features=768, bias=True)
  (dropout_input): Dropout(p=0.0, inplace=False)
  (dropout_features): Dropout(p=0.0, inplace=False)
  (encoder): TransformerEncoder(
    (pos_conv): Sequential(
      (0): Conv1d(768, 768, kernel_size=(32,), stride=(1,), padding=(16,), groups=16)
      (1): SamePad()
      (2): GELU(approximate='none')
    )
    (layers): ModuleList(
      (0-11): 12 x TransformerSentenceEncoderLayer(
        (self_attn): MultiheadAttention(
          (dropout_module): FairseqDropout()
          (k_proj): Linear(in_features=768, out_features=768, bias=True)
          (v_proj): Linear(in_features=768, out_features=768, bias=True)
          (q_proj): Linear(in_features=768, out_features=768, bias=True)
          (out_proj): Linear(in_features=768, out_features=768, bias=True)
        )
        (dropout1): Dropout(p=0.1, inplace=False)
        (dropout2): Dropout(p=0.0, inplace=False)
        (dropout3): Dropout(p=0.1, inplace=False)
        (self_attn_layer_norm): LayerNorm((768,), eps=1e-05, elementwise_affine=True)
        (fc1): Linear(in_features=768, out_features=3072, bias=True)
        (fc2): Linear(in_features=3072, out_features=768, bias=True)
        (final_layer_norm): LayerNorm((768,), eps=1e-05, elementwise_affine=True)
      )
    )
    (layer_norm): LayerNorm((768,), eps=1e-05, elementwise_affine=True)
  )
  (layer_norm): LayerNorm((1536,), eps=1e-05, elementwise_affine=True)
  (layer_norm_face): LayerNorm((384,), eps=1e-05, elementwise_affine=True)
  (layer_norm_lhand): LayerNorm((384,), eps=1e-05, elementwise_affine=True)
  (layer_norm_rhand): LayerNorm((384,), eps=1e-05, elementwise_affine=True)
  (layer_norm_body): LayerNorm((14,), eps=1e-05, elementwise_affine=True)
  (heads): ModuleList(
    (0-3): 4 x Linear(in_features=768, out_features=256, bias=True)
  )
  (face_proj): Linear(in_features=384, out_features=256, bias=True)
  (left_hand_proj): Linear(in_features=384, out_features=256, bias=True)
  (right_hand_proj): Linear(in_features=384, out_features=256, bias=True)
  (body_posture_proj): Linear(in_features=14, out_features=256, bias=True)
)
[2024-10-08 16:40:42,872][fairseq_cli.train][INFO] - task: AudioPretrainingTask
[2024-10-08 16:40:42,891][fairseq_cli.train][INFO] - model: SignHubertModel
[2024-10-08 16:40:42,891][fairseq_cli.train][INFO] - criterion: ModelCriterion
[2024-10-08 16:40:42,892][fairseq_cli.train][INFO] - num. shared model params: 88,116,284 (num. trained: 88,116,284)
[2024-10-08 16:40:42,903][fairseq_cli.train][INFO] - num. expert model params: 0 (num. trained: 0)
[2024-10-08 16:40:43,403][fairseq.data.audio.raw_audio_dataset][INFO] - loaded 84002, skipped 0 samples
[2024-10-08 16:40:43,434][fairseq_cli.train][INFO] - SignHubertModel(
  (post_extract_proj): Linear(in_features=1024, out_features=768, bias=True)
  (dropout_input): Dropout(p=0.0, inplace=False)
  (dropout_features): Dropout(p=0.0, inplace=False)
  (encoder): TransformerEncoder(
    (pos_conv): Sequential(
      (0): Conv1d(768, 768, kernel_size=(32,), stride=(1,), padding=(16,), groups=16)
      (1): SamePad()
      (2): GELU(approximate='none')
    )
    (layers): ModuleList(
      (0-11): 12 x TransformerSentenceEncoderLayer(
        (self_attn): MultiheadAttention(
          (dropout_module): FairseqDropout()
          (k_proj): Linear(in_features=768, out_features=768, bias=True)
          (v_proj): Linear(in_features=768, out_features=768, bias=True)
          (q_proj): Linear(in_features=768, out_features=768, bias=True)
          (out_proj): Linear(in_features=768, out_features=768, bias=True)
        )
        (dropout1): Dropout(p=0.1, inplace=False)
        (dropout2): Dropout(p=0.0, inplace=False)
        (dropout3): Dropout(p=0.1, inplace=False)
        (self_attn_layer_norm): LayerNorm((768,), eps=1e-05, elementwise_affine=True)
        (fc1): Linear(in_features=768, out_features=3072, bias=True)
        (fc2): Linear(in_features=3072, out_features=768, bias=True)
        (final_layer_norm): LayerNorm((768,), eps=1e-05, elementwise_affine=True)
      )
    )
    (layer_norm): LayerNorm((768,), eps=1e-05, elementwise_affine=True)
  )
  (layer_norm): LayerNorm((1536,), eps=1e-05, elementwise_affine=True)
  (layer_norm_face): LayerNorm((384,), eps=1e-05, elementwise_affine=True)
  (layer_norm_lhand): LayerNorm((384,), eps=1e-05, elementwise_affine=True)
  (layer_norm_rhand): LayerNorm((384,), eps=1e-05, elementwise_affine=True)
  (layer_norm_body): LayerNorm((14,), eps=1e-05, elementwise_affine=True)
  (heads): ModuleList(
    (0-3): 4 x Linear(in_features=768, out_features=256, bias=True)
  )
  (face_proj): Linear(in_features=384, out_features=256, bias=True)
  (left_hand_proj): Linear(in_features=384, out_features=256, bias=True)
  (right_hand_proj): Linear(in_features=384, out_features=256, bias=True)
  (body_posture_proj): Linear(in_features=14, out_features=256, bias=True)
)
[2024-10-08 16:40:43,440][fairseq_cli.train][INFO] - task: AudioPretrainingTask
[2024-10-08 16:40:43,440][fairseq_cli.train][INFO] - model: SignHubertModel
[2024-10-08 16:40:43,440][fairseq_cli.train][INFO] - criterion: ModelCriterion
[2024-10-08 16:40:43,441][fairseq_cli.train][INFO] - num. shared model params: 88,116,284 (num. trained: 88,116,284)
[2024-10-08 16:40:43,442][fairseq_cli.train][INFO] - num. expert model params: 0 (num. trained: 0)
[2024-10-08 16:40:43,924][fairseq.data.audio.raw_audio_dataset][INFO] - loaded 84002, skipped 0 samples
[2024-10-08 16:40:44,275][fairseq.data.audio.raw_audio_dataset][INFO] - loaded 84002, skipped 0 samples
[2024-10-08 16:40:44,520][fairseq_cli.train][INFO] - SignHubertModel(
  (post_extract_proj): Linear(in_features=1024, out_features=768, bias=True)
  (dropout_input): Dropout(p=0.0, inplace=False)
  (dropout_features): Dropout(p=0.0, inplace=False)
  (encoder): TransformerEncoder(
    (pos_conv): Sequential(
      (0): Conv1d(768, 768, kernel_size=(32,), stride=(1,), padding=(16,), groups=16)
      (1): SamePad()
      (2): GELU(approximate='none')
    )
    (layers): ModuleList(
      (0-11): 12 x TransformerSentenceEncoderLayer(
        (self_attn): MultiheadAttention(
          (dropout_module): FairseqDropout()
          (k_proj): Linear(in_features=768, out_features=768, bias=True)
          (v_proj): Linear(in_features=768, out_features=768, bias=True)
          (q_proj): Linear(in_features=768, out_features=768, bias=True)
          (out_proj): Linear(in_features=768, out_features=768, bias=True)
        )
        (dropout1): Dropout(p=0.1, inplace=False)
        (dropout2): Dropout(p=0.0, inplace=False)
        (dropout3): Dropout(p=0.1, inplace=False)
        (self_attn_layer_norm): LayerNorm((768,), eps=1e-05, elementwise_affine=True)
        (fc1): Linear(in_features=768, out_features=3072, bias=True)
        (fc2): Linear(in_features=3072, out_features=768, bias=True)
        (final_layer_norm): LayerNorm((768,), eps=1e-05, elementwise_affine=True)
      )
    )
    (layer_norm): LayerNorm((768,), eps=1e-05, elementwise_affine=True)
  )
  (layer_norm): LayerNorm((1536,), eps=1e-05, elementwise_affine=True)
  (layer_norm_face): LayerNorm((384,), eps=1e-05, elementwise_affine=True)
  (layer_norm_lhand): LayerNorm((384,), eps=1e-05, elementwise_affine=True)
  (layer_norm_rhand): LayerNorm((384,), eps=1e-05, elementwise_affine=True)
  (layer_norm_body): LayerNorm((14,), eps=1e-05, elementwise_affine=True)
  (heads): ModuleList(
    (0-3): 4 x Linear(in_features=768, out_features=256, bias=True)
  )
  (face_proj): Linear(in_features=384, out_features=256, bias=True)
  (left_hand_proj): Linear(in_features=384, out_features=256, bias=True)
  (right_hand_proj): Linear(in_features=384, out_features=256, bias=True)
  (body_posture_proj): Linear(in_features=14, out_features=256, bias=True)
)
[2024-10-08 16:40:44,522][fairseq_cli.train][INFO] - task: AudioPretrainingTask
[2024-10-08 16:40:44,522][fairseq_cli.train][INFO] - model: SignHubertModel
[2024-10-08 16:40:44,522][fairseq_cli.train][INFO] - criterion: ModelCriterion
[2024-10-08 16:40:44,531][fairseq_cli.train][INFO] - num. shared model params: 88,116,284 (num. trained: 88,116,284)
[2024-10-08 16:40:44,532][fairseq_cli.train][INFO] - num. expert model params: 0 (num. trained: 0)
[2024-10-08 16:40:44,788][fairseq.data.audio.raw_audio_dataset][INFO] - loaded 84002, skipped 0 samples
[2024-10-08 16:40:46,066][fairseq_cli.train][INFO] - SignHubertModel(
  (post_extract_proj): Linear(in_features=1024, out_features=768, bias=True)
  (dropout_input): Dropout(p=0.0, inplace=False)
  (dropout_features): Dropout(p=0.0, inplace=False)
  (encoder): TransformerEncoder(
    (pos_conv): Sequential(
      (0): Conv1d(768, 768, kernel_size=(32,), stride=(1,), padding=(16,), groups=16)
      (1): SamePad()
      (2): GELU(approximate='none')
    )
    (layers): ModuleList(
      (0-11): 12 x TransformerSentenceEncoderLayer(
        (self_attn): MultiheadAttention(
          (dropout_module): FairseqDropout()
          (k_proj): Linear(in_features=768, out_features=768, bias=True)
          (v_proj): Linear(in_features=768, out_features=768, bias=True)
          (q_proj): Linear(in_features=768, out_features=768, bias=True)
          (out_proj): Linear(in_features=768, out_features=768, bias=True)
        )
        (dropout1): Dropout(p=0.1, inplace=False)
        (dropout2): Dropout(p=0.0, inplace=False)
        (dropout3): Dropout(p=0.1, inplace=False)
        (self_attn_layer_norm): LayerNorm((768,), eps=1e-05, elementwise_affine=True)
        (fc1): Linear(in_features=768, out_features=3072, bias=True)
        (fc2): Linear(in_features=3072, out_features=768, bias=True)
        (final_layer_norm): LayerNorm((768,), eps=1e-05, elementwise_affine=True)
      )
    )
    (layer_norm): LayerNorm((768,), eps=1e-05, elementwise_affine=True)
  )
  (layer_norm): LayerNorm((1536,), eps=1e-05, elementwise_affine=True)
  (layer_norm_face): LayerNorm((384,), eps=1e-05, elementwise_affine=True)
  (layer_norm_lhand): LayerNorm((384,), eps=1e-05, elementwise_affine=True)
  (layer_norm_rhand): LayerNorm((384,), eps=1e-05, elementwise_affine=True)
  (layer_norm_body): LayerNorm((14,), eps=1e-05, elementwise_affine=True)
  (heads): ModuleList(
    (0-3): 4 x Linear(in_features=768, out_features=256, bias=True)
  )
  (face_proj): Linear(in_features=384, out_features=256, bias=True)
  (left_hand_proj): Linear(in_features=384, out_features=256, bias=True)
  (right_hand_proj): Linear(in_features=384, out_features=256, bias=True)
  (body_posture_proj): Linear(in_features=14, out_features=256, bias=True)
)
[2024-10-08 16:40:46,107][fairseq_cli.train][INFO] - task: AudioPretrainingTask
[2024-10-08 16:40:46,107][fairseq_cli.train][INFO] - model: SignHubertModel
[2024-10-08 16:40:46,107][fairseq_cli.train][INFO] - criterion: ModelCriterion
[2024-10-08 16:40:46,108][fairseq_cli.train][INFO] - num. shared model params: 88,116,284 (num. trained: 88,116,284)
[2024-10-08 16:40:46,108][fairseq_cli.train][INFO] - num. expert model params: 0 (num. trained: 0)
…
