…
date': 0, 'ema_seed_model': None, 'ema_update_freq': 1, 'ema_fp32': False}, 'job_logging_cfg': {'version': 1, 'formatters': {'simple': {'format': '[%(asctime)s][%(name)s][%(levelname)s] - %(message)s'}}, 'handlers': {'console': {'class': 'logging.StreamHandler', 'formatter': 'simple', 'stream': 'ext://sys.stdout'}, 'file': {'class': 'logging.FileHandler', 'formatter': 'simple', 'filename': 'hydra_train.log'}}, 'root': {'level': 'INFO', 'handlers': ['console', 'file']}, 'disable_existing_loggers': False}}
[2024-10-04 18:01:20,866][fairseq_cli.train][INFO] - SignHubertModel(
  (post_extract_proj): Linear(in_features=1024, out_features=768, bias=True)
  (dropout_input): Dropout(p=0.0, inplace=False)
  (dropout_features): Dropout(p=0.0, inplace=False)
  (encoder): TransformerEncoder(
    (pos_conv): Sequential(
      (0): Conv1d(768, 768, kernel_size=(32,), stride=(1,), padding=(16,), groups=16)
      (1): SamePad()
      (2): GELU(approximate='none')
    )
    (layers): ModuleList(
      (0-11): 12 x TransformerSentenceEncoderLayer(
        (self_attn): MultiheadAttention(
          (dropout_module): FairseqDropout()
          (k_proj): Linear(in_features=768, out_features=768, bias=True)
          (v_proj): Linear(in_features=768, out_features=768, bias=True)
          (q_proj): Linear(in_features=768, out_features=768, bias=True)
          (out_proj): Linear(in_features=768, out_features=768, bias=True)
        )
        (dropout1): Dropout(p=0.1, inplace=False)
        (dropout2): Dropout(p=0.0, inplace=False)
        (dropout3): Dropout(p=0.1, inplace=False)
        (self_attn_layer_norm): LayerNorm((768,), eps=1e-05, elementwise_affine=True)
        (fc1): Linear(in_features=768, out_features=3072, bias=True)
        (fc2): Linear(in_features=3072, out_features=768, bias=True)
        (final_layer_norm): LayerNorm((768,), eps=1e-05, elementwise_affine=True)
      )
    )
    (layer_norm): LayerNorm((768,), eps=1e-05, elementwise_affine=True)
  )
  (layer_norm): LayerNorm((1536,), eps=1e-05, elementwise_affine=True)
  (layer_norm_face): LayerNorm((384,), eps=1e-05, elementwise_affine=True)
  (layer_norm_lhand): LayerNorm((384,), eps=1e-05, elementwise_affine=True)
  (layer_norm_rhand): LayerNorm((384,), eps=1e-05, elementwise_affine=True)
  (layer_norm_body): LayerNorm((14,), eps=1e-05, elementwise_affine=True)
  (heads): ModuleList(
    (0-3): 4 x Linear(in_features=768, out_features=256, bias=True)
  )
  (face_proj): Linear(in_features=384, out_features=256, bias=True)
  (left_hand_proj): Linear(in_features=384, out_features=256, bias=True)
  (right_hand_proj): Linear(in_features=384, out_features=256, bias=True)
  (body_posture_proj): Linear(in_features=14, out_features=256, bias=True)
)
[2024-10-04 18:01:20,885][fairseq_cli.train][INFO] - task: AudioPretrainingTask
[2024-10-04 18:01:20,885][fairseq_cli.train][INFO] - model: SignHubertModel
[2024-10-04 18:01:20,885][fairseq_cli.train][INFO] - criterion: ModelCriterion
[2024-10-04 18:01:20,887][fairseq_cli.train][INFO] - num. shared model params: 88,116,284 (num. trained: 88,116,284)
[2024-10-04 18:01:20,888][fairseq_cli.train][INFO] - num. expert model params: 0 (num. trained: 0)
[2024-10-04 18:01:21,646][fairseq_cli.train][INFO] - SignHubertModel(
  (post_extract_proj): Linear(in_features=1024, out_features=768, bias=True)
  (dropout_input): Dropout(p=0.0, inplace=False)
  (dropout_features): Dropout(p=0.0, inplace=False)
  (encoder): TransformerEncoder(
    (pos_conv): Sequential(
      (0): Conv1d(768, 768, kernel_size=(32,), stride=(1,), padding=(16,), groups=16)
      (1): SamePad()
      (2): GELU(approximate='none')
    )
    (layers): ModuleList(
      (0-11): 12 x TransformerSentenceEncoderLayer(
        (self_attn): MultiheadAttention(
          (dropout_module): FairseqDropout()
          (k_proj): Linear(in_features=768, out_features=768, bias=True)
          (v_proj): Linear(in_features=768, out_features=768, bias=True)
          (q_proj): Linear(in_features=768, out_features=768, bias=True)
          (out_proj): Linear(in_features=768, out_features=768, bias=True)
        )
        (dropout1): Dropout(p=0.1, inplace=False)
        (dropout2): Dropout(p=0.0, inplace=False)
        (dropout3): Dropout(p=0.1, inplace=False)
        (self_attn_layer_norm): LayerNorm((768,), eps=1e-05, elementwise_affine=True)
        (fc1): Linear(in_features=768, out_features=3072, bias=True)
        (fc2): Linear(in_features=3072, out_features=768, bias=True)
        (final_layer_norm): LayerNorm((768,), eps=1e-05, elementwise_affine=True)
      )
    )
    (layer_norm): LayerNorm((768,), eps=1e-05, elementwise_affine=True)
  )
  (layer_norm): LayerNorm((1536,), eps=1e-05, elementwise_affine=True)
  (layer_norm_face): LayerNorm((384,), eps=1e-05, elementwise_affine=True)
  (layer_norm_lhand): LayerNorm((384,), eps=1e-05, elementwise_affine=True)
  (layer_norm_rhand): LayerNorm((384,), eps=1e-05, elementwise_affine=True)
  (layer_norm_body): LayerNorm((14,), eps=1e-05, elementwise_affine=True)
  (heads): ModuleList(
    (0-3): 4 x Linear(in_features=768, out_features=256, bias=True)
  )
  (face_proj): Linear(in_features=384, out_features=256, bias=True)
  (left_hand_proj): Linear(in_features=384, out_features=256, bias=True)
  (right_hand_proj): Linear(in_features=384, out_features=256, bias=True)
  (body_posture_proj): Linear(in_features=14, out_features=256, bias=True)
)
[2024-10-04 18:01:21,673][fairseq_cli.train][INFO] - task: AudioPretrainingTask
[2024-10-04 18:01:21,673][fairseq_cli.train][INFO] - model: SignHubertModel
[2024-10-04 18:01:21,674][fairseq_cli.train][INFO] - criterion: ModelCriterion
[2024-10-04 18:01:21,675][fairseq_cli.train][INFO] - num. shared model params: 88,116,284 (num. trained: 88,116,284)
[2024-10-04 18:01:21,676][fairseq_cli.train][INFO] - num. expert model params: 0 (num. trained: 0)
[2024-10-04 18:01:21,702][fairseq_cli.train][INFO] - SignHubertModel(
  (post_extract_proj): Linear(in_features=1024, out_features=768, bias=True)
  (dropout_input): Dropout(p=0.0, inplace=False)
  (dropout_features): Dropout(p=0.0, inplace=False)
  (encoder): TransformerEncoder(
    (pos_conv): Sequential(
      (0): Conv1d(768, 768, kernel_size=(32,), stride=(1,), padding=(16,), groups=16)
      (1): SamePad()
      (2): GELU(approximate='none')
    )
    (layers): ModuleList(
      (0-11): 12 x TransformerSentenceEncoderLayer(
        (self_attn): MultiheadAttention(
          (dropout_module): FairseqDropout()
          (k_proj): Linear(in_features=768, out_features=768, bias=True)
          (v_proj): Linear(in_features=768, out_features=768, bias=True)
          (q_proj): Linear(in_features=768, out_features=768, bias=True)
          (out_proj): Linear(in_features=768, out_features=768, bias=True)
        )
        (dropout1): Dropout(p=0.1, inplace=False)
        (dropout2): Dropout(p=0.0, inplace=False)
        (dropout3): Dropout(p=0.1, inplace=False)
        (self_attn_layer_norm): LayerNorm((768,), eps=1e-05, elementwise_affine=True)
        (fc1): Linear(in_features=768, out_features=3072, bias=True)
        (fc2): Linear(in_features=3072, out_features=768, bias=True)
        (final_layer_norm): LayerNorm((768,), eps=1e-05, elementwise_affine=True)
      )
    )
    (layer_norm): LayerNorm((768,), eps=1e-05, elementwise_affine=True)
  )
  (layer_norm): LayerNorm((1536,), eps=1e-05, elementwise_affine=True)
  (layer_norm_face): LayerNorm((384,), eps=1e-05, elementwise_affine=True)
  (layer_norm_lhand): LayerNorm((384,), eps=1e-05, elementwise_affine=True)
  (layer_norm_rhand): LayerNorm((384,), eps=1e-05, elementwise_affine=True)
  (layer_norm_body): LayerNorm((14,), eps=1e-05, elementwise_affine=True)
  (heads): ModuleList(
    (0-3): 4 x Linear(in_features=768, out_features=256, bias=True)
  )
  (face_proj): Linear(in_features=384, out_features=256, bias=True)
  (left_hand_proj): Linear(in_features=384, out_features=256, bias=True)
  (right_hand_proj): Linear(in_features=384, out_features=256, bias=True)
  (body_posture_proj): Linear(in_features=14, out_features=256, bias=True)
)
[2024-10-04 18:01:21,725][fairseq_cli.train][INFO] - task: AudioPretrainingTask
[2024-10-04 18:01:21,725][fairseq_cli.train][INFO] - model: SignHubertModel
[2024-10-04 18:01:21,725][fairseq_cli.train][INFO] - criterion: ModelCriterion
[2024-10-04 18:01:21,727][fairseq_cli.train][INFO] - num. shared model params: 88,116,284 (num. trained: 88,116,284)
[2024-10-04 18:01:21,728][fairseq_cli.train][INFO] - num. expert model params: 0 (num. trained: 0)
[2024-10-04 18:01:25,927][fairseq_cli.train][INFO] - SignHubertModel(
  (post_extract_proj): Linear(in_features=1024, out_features=768, bias=True)
  (dropout_input): Dropout(p=0.0, inplace=False)
  (dropout_features): Dropout(p=0.0, inplace=False)
  (encoder): TransformerEncoder(
    (pos_conv): Sequential(
      (0): Conv1d(768, 768, kernel_size=(32,), stride=(1,), padding=(16,), groups=16)
      (1): SamePad()
      (2): GELU(approximate='none')
    )
    (layers): ModuleList(
      (0-11): 12 x TransformerSentenceEncoderLayer(
        (self_attn): MultiheadAttention(
          (dropout_module): FairseqDropout()
          (k_proj): Linear(in_features=768, out_features=768, bias=True)
          (v_proj): Linear(in_features=768, out_features=768, bias=True)
          (q_proj): Linear(in_features=768, out_features=768, bias=True)
          (out_proj): Linear(in_features=768, out_features=768, bias=True)
        )
        (dropout1): Dropout(p=0.1, inplace=False)
        (dropout2): Dropout(p=0.0, inplace=False)
        (dropout3): Dropout(p=0.1, inplace=False)
        (self_attn_layer_norm): LayerNorm((768,), eps=1e-05, elementwise_affine=True)
        (fc1): Linear(in_features=768, out_features=3072, bias=True)
        (fc2): Linear(in_features=3072, out_features=768, bias=True)
        (final_layer_norm): LayerNorm((768,), eps=1e-05, elementwise_affine=True)
      )
    )
    (layer_norm): LayerNorm((768,), eps=1e-05, elementwise_affine=True)
  )
  (layer_norm): LayerNorm((1536,), eps=1e-05, elementwise_affine=True)
  (layer_norm_face): LayerNorm((384,), eps=1e-05, elementwise_affine=True)
  (layer_norm_lhand): LayerNorm((384,), eps=1e-05, elementwise_affine=True)
  (layer_norm_rhand): LayerNorm((384,), eps=1e-05, elementwise_affine=True)
  (layer_norm_body): LayerNorm((14,), eps=1e-05, elementwise_affine=True)
  (heads): ModuleList(
    (0-3): 4 x Linear(in_features=768, out_features=256, bias=True)
  )
  (face_proj): Linear(in_features=384, out_features=256, bias=True)
  (left_hand_proj): Linear(in_features=384, out_features=256, bias=True)
  (right_hand_proj): Linear(in_features=384, out_features=256, bias=True)
  (body_posture_proj): Linear(in_features=14, out_features=256, bias=True)
)
[2024-10-04 18:01:25,943][fairseq_cli.train][INFO] - task: AudioPretrainingTask
[2024-10-04 18:01:25,943][fairseq_cli.train][INFO] - model: SignHubertModel
[2024-10-04 18:01:25,943][fairseq_cli.train][INFO] - criterion: ModelCriterion
[2024-10-04 18:01:25,944][fairseq_cli.train][INFO] - num. shared model params: 88,116,284 (num. trained: 88,116,284)
[2024-10-04 18:01:25,965][fairseq_cli.train][INFO] - num. expert model params: 0 (num. trained: 0)
[2024-10-04 18:01:27,269][fairseq_cli.train][INFO] - SignHubertModel(
  (post_extract_proj): Linear(in_features=1024, out_features=768, bias=True)
  (dropout_input): Dropout(p=0.0, inplace=False)
  (dropout_features): Dropout(p=0.0, inplace=False)
  (encoder): TransformerEncoder(
    (pos_conv): Sequential(
      (0): Conv1d(768, 768, kernel_size=(32,), stride=(1,), padding=(16,), groups=16)
      (1): SamePad()
      (2): GELU(approximate='none')
    )
    (layers): ModuleList(
      (0-11): 12 x TransformerSentenceEncoderLayer(
        (self_attn): MultiheadAttention(
          (dropout_module): FairseqDropout()
          (k_proj): Linear(in_features=768, out_features=768, bias=True)
          (v_proj): Linear(in_features=768, out_features=768, bias=True)
          (q_proj): Linear(in_features=768, out_features=768, bias=True)
          (out_proj): Linear(in_features=768, out_features=768, bias=True)
        )
        (dropout1): Dropout(p=0.1, inplace=False)
        (dropout2): Dropout(p=0.0, inplace=False)
        (dropout3): Dropout(p=0.1, inplace=False)
        (self_attn_layer_norm): LayerNorm((768,), eps=1e-05, elementwise_affine=True)
        (fc1): Linear(in_features=768, out_features=3072, bias=True)
        (fc2): Linear(in_features=3072, out_features=768, bias=True)
        (final_layer_norm): LayerNorm((768,), eps=1e-05, elementwise_affine=True)
      )
    )
    (layer_norm): LayerNorm((768,), eps=1e-05, elementwise_affine=True)
  )
  (layer_norm): LayerNorm((1536,), eps=1e-05, elementwise_affine=True)
  (layer_norm_face): LayerNorm((384,), eps=1e-05, elementwise_affine=True)
  (layer_norm_lhand): LayerNorm((384,), eps=1e-05, elementwise_affine=True)
  (layer_norm_rhand): LayerNorm((384,), eps=1e-05, elementwise_affine=True)
  (layer_norm_body): LayerNorm((14,), eps=1e-05, elementwise_affine=True)
  (heads): ModuleList(
    (0-3): 4 x Linear(in_features=768, out_features=256, bias=True)
  )
  (face_proj): Linear(in_features=384, out_features=256, bias=True)
  (left_hand_proj): Linear(in_features=384, out_features=256, bias=True)
  (right_hand_proj): Linear(in_features=384, out_features=256, bias=True)
  (body_posture_proj): Linear(in_features=14, out_features=256, bias=True)
)
[2024-10-04 18:01:27,303][fairseq_cli.train][INFO] - task: AudioPretrainingTask
[2024-10-04 18:01:27,303][fairseq_cli.train][INFO] - model: SignHubertModel
[2024-10-04 18:01:27,303][fairseq_cli.train][INFO] - criterion: ModelCriterion
[2024-10-04 18:01:27,330][fairseq_cli.train][INFO] - num. shared model params: 88,116,284 (num. trained: 88,116,284)
[2024-10-04 18:01:27,331][fairseq_cli.train][INFO] - num. expert model params: 0 (num. trained: 0)
[2024-10-04 18:01:28,398][fairseq_cli.train][INFO] - SignHubertModel(
  (post_extract_proj): Linear(in_features=1024, out_features=768, bias=True)
  (dropout_input): Dropout(p=0.0, inplace=False)
  (dropout_features): Dropout(p=0.0, inplace=False)
  (encoder): TransformerEncoder(
    (pos_conv): Sequential(
      (0): Conv1d(768, 768, kernel_size=(32,), stride=(1,), padding=(16,), groups=16)
      (1): SamePad()
      (2): GELU(approximate='none')
    )
    (layers): ModuleList(
      (0-11): 12 x TransformerSentenceEncoderLayer(
        (self_attn): MultiheadAttention(
          (dropout_module): FairseqDropout()
          (k_proj): Linear(in_features=768, out_features=768, bias=True)
          (v_proj): Linear(in_features=768, out_features=768, bias=True)
          (q_proj): Linear(in_features=768, out_features=768, bias=True)
          (out_proj): Linear(in_features=768, out_features=768, bias=True)
        )
        (dropout1): Dropout(p=0.1, inplace=False)
        (dropout2): Dropout(p=0.0, inplace=False)
        (dropout3): Dropout(p=0.1, inplace=False)
        (self_attn_layer_norm): LayerNorm((768,), eps=1e-05, elementwise_affine=True)
        (fc1): Linear(in_features=768, out_features=3072, bias=True)
        (fc2): Linear(in_features=3072, out_features=768, bias=True)
        (final_layer_norm): LayerNorm((768,), eps=1e-05, elementwise_affine=True)
      )
    )
    (layer_norm): LayerNorm((768,), eps=1e-05, elementwise_affine=True)
  )
  (layer_norm): LayerNorm((1536,), eps=1e-05, elementwise_affine=True)
  (layer_norm_face): LayerNorm((384,), eps=1e-05, elementwise_affine=True)
  (layer_norm_lhand): LayerNorm((384,), eps=1e-05, elementwise_affine=True)
  (layer_norm_rhand): LayerNorm((384,), eps=1e-05, elementwise_affine=True)
  (layer_norm_body): LayerNorm((14,), eps=1e-05, elementwise_affine=True)
  (heads): ModuleList(
    (0-3): 4 x Linear(in_features=768, out_features=256, bias=True)
  )
  (face_proj): Linear(in_features=384, out_features=256, bias=True)
  (left_hand_proj): Linear(in_features=384, out_features=256, bias=True)
  (right_hand_proj): Linear(in_features=384, out_features=256, bias=True)
  (body_posture_proj): Linear(in_features=14, out_features=256, bias=True)
)
[2024-10-04 18:01:28,421][fairseq_cli.train][INFO] - task: AudioPretrainingTask
[2024-10-04 18:01:28,421][fairseq_cli.train][INFO] - model: SignHubertModel
[2024-10-04 18:01:28,421][fairseq_cli.train][INFO] - criterion: ModelCriterion
[2024-10-04 18:01:28,423][fairseq_cli.train][INFO] - num. shared model params: 88,116,284 (num. trained: 88,116,284)
[2024-10-04 18:01:28,424][fairseq_cli.train][INFO] - num. expert model params: 0 (num. trained: 0)
[2024-10-04 18:01:29,116][fairseq_cli.train][INFO] - SignHubertModel(
  (post_extract_proj): Linear(in_features=1024, out_features=768, bias=True)
  (dropout_input): Dropout(p=0.0, inplace=False)
  (dropout_features): Dropout(p=0.0, inplace=False)
  (encoder): TransformerEncoder(
    (pos_conv): Sequential(
      (0): Conv1d(768, 768, kernel_size=(32,), stride=(1,), padding=(16,), groups=16)
      (1): SamePad()
      (2): GELU(approximate='none')
    )
    (layers): ModuleList(
      (0-11): 12 x TransformerSentenceEncoderLayer(
        (self_attn): MultiheadAttention(
          (dropout_module): FairseqDropout()
          (k_proj): Linear(in_features=768, out_features=768, bias=True)
          (v_proj): Linear(in_features=768, out_features=768, bias=True)
          (q_proj): Linear(in_features=768, out_features=768, bias=True)
          (out_proj): Linear(in_features=768, out_features=768, bias=True)
        )
        (dropout1): Dropout(p=0.1, inplace=False)
        (dropout2): Dropout(p=0.0, inplace=False)
        (dropout3): Dropout(p=0.1, inplace=False)
        (self_attn_layer_norm): LayerNorm((768,), eps=1e-05, elementwise_affine=True)
        (fc1): Linear(in_features=768, out_features=3072, bias=True)
        (fc2): Linear(in_features=3072, out_features=768, bias=True)
        (final_layer_norm): LayerNorm((768,), eps=1e-05, elementwise_affine=True)
      )
    )
    (layer_norm): LayerNorm((768,), eps=1e-05, elementwise_affine=True)
  )
  (layer_norm): LayerNorm((1536,), eps=1e-05, elementwise_affine=True)
  (layer_norm_face): LayerNorm((384,), eps=1e-05, elementwise_affine=True)
  (layer_norm_lhand): LayerNorm((384,), eps=1e-05, elementwise_affine=True)
  (layer_norm_rhand): LayerNorm((384,), eps=1e-05, elementwise_affine=True)
  (layer_norm_body): LayerNorm((14,), eps=1e-05, elementwise_affine=True)
  (heads): ModuleList(
    (0-3): 4 x Linear(in_features=768, out_features=256, bias=True)
  )
  (face_proj): Linear(in_features=384, out_features=256, bias=True)
  (left_hand_proj): Linear(in_features=384, out_features=256, bias=True)
  (right_hand_proj): Linear(in_features=384, out_features=256, bias=True)
  (body_posture_proj): Linear(in_features=14, out_features=256, bias=True)
)
[2024-10-04 18:01:29,143][fairseq_cli.train][INFO] - task: AudioPretrainingTask
[2024-10-04 18:01:29,144][fairseq_cli.train][INFO] - model: SignHubertModel
[2024-10-04 18:01:29,144][fairseq_cli.train][INFO] - criterion: ModelCriterion
[2024-10-04 18:01:29,165][fairseq_cli.train][INFO] - num. shared model params: 88,116,284 (num. trained: 88,116,284)
[2024-10-04 18:01:29,166][fairseq_cli.train][INFO] - num. expert model params: 0 (num. trained: 0)
[2024-10-04 18:01:30,061][fairseq_cli.train][INFO] - SignHubertModel(
  (post_extract_proj): Linear(in_features=1024, out_features=768, bias=True)
  (dropout_input): Dropout(p=0.0, inplace=False)
  (dropout_features): Dropout(p=0.0, inplace=False)
  (encoder): TransformerEncoder(
    (pos_conv): Sequential(
      (0): Conv1d(768, 768, kernel_size=(32,), stride=(1,), padding=(16,), groups=16)
      (1): SamePad()
      (2): GELU(approximate='none')
    )
    (layers): ModuleList(
      (0-11): 12 x TransformerSentenceEncoderLayer(
        (self_attn): MultiheadAttention(
          (dropout_module): FairseqDropout()
          (k_proj): Linear(in_features=768, out_features=768, bias=True)
          (v_proj): Linear(in_features=768, out_features=768, bias=True)
          (q_proj): Linear(in_features=768, out_features=768, bias=True)
          (out_proj): Linear(in_features=768, out_features=768, bias=True)
        )
        (dropout1): Dropout(p=0.1, inplace=False)
        (dropout2): Dropout(p=0.0, inplace=False)
        (dropout3): Dropout(p=0.1, inplace=False)
        (self_attn_layer_norm): LayerNorm((768,), eps=1e-05, elementwise_affine=True)
        (fc1): Linear(in_features=768, out_features=3072, bias=True)
        (fc2): Linear(in_features=3072, out_features=768, bias=True)
        (final_layer_norm): LayerNorm((768,), eps=1e-05, elementwise_affine=True)
      )
    )
    (layer_norm): LayerNorm((768,), eps=1e-05, elementwise_affine=True)
  )
  (layer_norm): LayerNorm((1536,), eps=1e-05, elementwise_affine=True)
  (layer_norm_face): LayerNorm((384,), eps=1e-05, elementwise_affine=True)
  (layer_norm_lhand): LayerNorm((384,), eps=1e-05, elementwise_affine=True)
  (layer_norm_rhand): LayerNorm((384,), eps=1e-05, elementwise_affine=True)
  (layer_norm_body): LayerNorm((14,), eps=1e-05, elementwise_affine=True)
  (heads): ModuleList(
    (0-3): 4 x Linear(in_features=768, out_features=256, bias=True)
  )
  (face_proj): Linear(in_features=384, out_features=256, bias=True)
  (left_hand_proj): Linear(in_features=384, out_features=256, bias=True)
  (right_hand_proj): Linear(in_features=384, out_features=256, bias=True)
  (body_posture_proj): Linear(in_features=14, out_features=256, bias=True)
)
[2024-10-04 18:01:30,064][fairseq_cli.train][INFO] - task: AudioPretrainingTask
[2024-10-04 18:01:30,064][fairseq_cli.train][INFO] - model: SignHubertModel
[2024-10-04 18:01:30,064][fairseq_cli.train][INFO] - criterion: ModelCriterion
[2024-10-04 18:01:30,102][fairseq_cli.train][INFO] - num. shared model params: 88,116,284 (num. trained: 88,116,284)
[2024-10-04 18:01:30,103][fairseq_cli.train][INFO] - num. expert model params: 0 (num. trained: 0)
…
